model.tflite (tflite, 566184 bytes, 53 tensors)

mnas_v4_a_035_1/feature_network/cell_11/op_0/depthwise_0/weights_quant/FakeQuantWithMinMaxVars u1 [1, 3, 3, 192] scale=0.6483273 zero_point=75
0	0x4b	0.0
1	0x4a	-0.6483273
2	0x4b	0.0
3	0x4a	-0.6483273
4	0x4b	0.0
5	0x4c	0.6483273
6	0x4b	0.0
7	0x4b	0.0
8	0x4b	0.0
9	0x4c	0.6483273
10	0x4b	0.0
11	0x4c	0.6483273
12	0x4a	-0.6483273
13	0x4b	0.0
14	0x4d	1.2966546
15	0x4b	0.0
16	0x4b	0.0
17	0x4b	0.0
18	0x4c	0.6483273
19	0x4a	-0.6483273
20	0x4b	0.0
21	0x4c	0.6483273
22	0x4b	0.0
23	0x4b	0.0
24	0x4c	0.6483273
25	0x4b	0.0
26	0x4b	0.0
27	0x4b	0.0
28	0x4b	0.0
29	0x4b	0.0
30	0x4b	0.0
31	0x4c	0.6483273
32	0x4c	0.6483273
33	0x4b	0.0
34	0x4a	-0.6483273
35	0x4c	0.6483273
36	0x4b	0.0
37	0x4c	0.6483273
38	0x4b	0.0
39	0x4b	0.0
40	0x4b	0.0
41	0x4b	0.0
42	0x4b	0.0
43	0x4b	0.0
44	0x4a	-0.6483273
45	0x4b	0.0
46	0x4c	0.6483273
47	0x4a	-0.6483273
48	0x4b	0.0
49	0x4b	0.0
50	0x4b	0.0
51	0x4b	0.0
52	0x4b	0.0
53	0x4b	0.0
54	0x4c	0.6483273
55	0x4b	0.0
56	0x4b	0.0
57	0x4c	0.6483273
58	0x4b	0.0
59	0x4b	0.0
60	0x4c	0.6483273
61	0x4a	-0.6483273
62	0x4a	-0.6483273
63	0x4c	0.6483273
64	0x4b	0.0
65	0x4c	0.6483273
66	0x4a	-0.6483273
67	0x4a	-0.6483273
68	0x4a	-0.6483273
69	0x4c	0.6483273
70	0x4c	0.6483273
71	0x4b	0.0
72	0x4c	0.6483273
73	0x4b	0.0
74	0x4b	0.0
75	0x4b	0.0
76	0x4a	-0.6483273
77	0x4b	0.0
78	0x4b	0.0
79	0x49	-1.2966546
80	0x4b	0.0
81	0x4c	0.6483273
82	0x4c	0.6483273
83	0x4c	0.6483273
84	0x4b	0.0
85	0x29	-22.043127
86	0x4d	1.2966546
87	0x4d	1.2966546
88	0x4b	0.0
89	0x4a	-0.6483273
90	0x4d	1.2966546
91	0x48	-1.9449818
92	0x4a	-0.6483273
93	0x4e	1.9449818
94	0x4b	0.0
95	0x4a	-0.6483273
96	0x4a	-0.6483273
97	0x4c	0.6483273
98	0x4c	0.6483273
99	0x4c	0.6483273
100	0x4b	0.0
101	0x4b	0.0
102	0x4b	0.0
103	0x4b	0.0
104	0x4c	0.6483273
105	0x4b	0.0
106	0x4b	0.0
107	0x4c	0.6483273
108	0x4b	0.0
109	0x4c	0.6483273
110	0x4d	1.2966546
111	0x4b	0.0
112	0x4c	0.6483273
113	0x4b	0.0
114	0x4a	-0.6483273
115	0x4c	0.6483273
116	0x47	-2.5933092
117	0x4a	-0.6483273
118	0x49	-1.2966546
119	0x4a	-0.6483273
120	0x4a	-0.6483273
121	0x4a	-0.6483273
122	0x4b	0.0
123	0x49	-1.2966546
124	0x4b	0.0
125	0x4a	-0.6483273
126	0x4b	0.0
127	0x4b	0.0
128	0x4c	0.6483273
129	0x4b	0.0
130	0x4c	0.6483273
131	0x4b	0.0
132	0x4c	0.6483273
133	0x4c	0.6483273
134	0x4c	0.6483273
135	0x4b	0.0
136	0x4b	0.0
137	0x4c	0.6483273
138	0x4f	2.5933092
139	0x4a	-0.6483273
140	0x4b	0.0
141	0x4f	2.5933092
142	0x4b	0.0
143	0x4b	0.0
144	0x4c	0.6483273
145	0x4c	0.6483273
146	0x47	-2.5933092
147	0x4a	-0.6483273
148	0x4a	-0.6483273
149	0x49	-1.2966546
150	0x4d	1.2966546
151	0x4b	0.0
152	0x4a	-0.6483273
153	0x4a	-0.6483273
154	0x4b	0.0
155	0x4a	-0.6483273
156	0x4d	1.2966546
157	0x4b	0.0
158	0x4b	0.0
159	0x4a	-0.6483273
160	0x4c	0.6483273
161	0x4b	0.0
162	0x4b	0.0
163	0x4b	0.0
164	0x4b	0.0
165	0x4b	0.0
166	0x49	-1.2966546
167	0x4c	0.6483273
168	0x4b	0.0
169	0x4a	-0.6483273
170	0x4b	0.0
171	0x4e	1.9449818
172	0x4b	0.0
173	0x4b	0.0
174	0x4b	0.0
175	0x4a	-0.6483273
176	0x4a	-0.6483273
177	0x4b	0.0
178	0x4b	0.0
179	0x4f	2.5933092
180	0x4b	0.0
181	0x4b	0.0
182	0x4b	0.0
183	0x4c	0.6483273
184	0x4b	0.0
185	0x4b	0.0
186	0x4c	0.6483273
187	0x4c	0.6483273
188	0x4e	1.9449818
189	0x4c	0.6483273
190	0x4b	0.0
191	0x4a	-0.6483273
192	0x4a	-0.6483273
193	0x4c	0.6483273
194	0x4b	0.0
195	0x4a	-0.6483273
196	0x4b	0.0
197	0x4c	0.6483273
198	0x4b	0.0
199	0x4a	-0.6483273
200	0x4c	0.6483273
201	0x49	-1.2966546
202	0x4c	0.6483273
203	0x4f	2.5933092
204	0x4a	-0.6483273
205	0x4a	-0.6483273
206	0x4e	1.9449818
207	0x4c	0.6483273
208	0x4b	0.0
209	0x4f	2.5933092
210	0x4c	0.6483273
211	0x4b	0.0
212	0x4a	-0.6483273
213	0x4c	0.6483273
214	0x4c	0.6483273
215	0x4c	0.6483273
216	0x4d	1.2966546
217	0x4a	-0.6483273
218	0x4d	1.2966546
219	0x4d	1.2966546
220	0x4a	-0.6483273
221	0x4a	-0.6483273
222	0x4c	0.6483273
223	0x4f	2.5933092
224	0x4b	0.0
225	0x49	-1.2966546
226	0x4b	0.0
227	0x4a	-0.6483273
228	0x4b	0.0
229	0x4c	0.6483273
230	0x4b	0.0
231	0x4b	0.0
232	0x4b	0.0
233	0x4c	0.6483273
234	0x4a	-0.6483273
235	0x4b	0.0
236	0x4a	-0.6483273
237	0x4c	0.6483273
238	0x4c	0.6483273
239	0x4b	0.0
240	0x4e	1.9449818
241	0x4b	0.0
242	0x4a	-0.6483273
243	0x4a	-0.6483273
244	0x4c	0.6483273
245	0x4c	0.6483273
246	0x4d	1.2966546
247	0x4b	0.0
248	0x4c	0.6483273
249	0x4c	0.6483273
250	0x49	-1.2966546
251	0x4b	0.0
252	0x4d	1.2966546
253	0x4b	0.0
254	0x4a	-0.6483273
255	0x4d	1.2966546

mnas_v4_a_035_1/feature_network/cell_11/op_0/expand_0/weights_quant/FakeQuantWithMinMaxVars u1 [192, 1, 1, 32] scale=0.00088579796 zero_point=105
0	0xa1	0.049604684
1	0x43	-0.033660322
2	0x5e	-0.009743777
3	0x43	-0.033660322
4	0x83	0.023030747
5	0x48	-0.029231332
6	0x98	0.041632503
7	0x78	0.01328697
8	0x6b	0.0017715959
9	0x61	-0.0070863836
10	0x3a	-0.041632503
11	0x4b	-0.02657394
12	0x75	0.010629576
13	0xa7	0.054919474
14	0x31	-0.049604684
15	0x97	0.040746707
16	0x62	-0.0062005855
17	0x3c	-0.039860908
18	0x6e	0.0044289897
19	0x9f	0.04783309
20	0x96	0.039860908
21	0x82	0.022144949
22	0x68	-0.00088579796
23	0x62	-0.0062005855
24	0x45	-0.031888727
25	0x8a	0.029231332
26	0x5e	-0.009743777
27	0x5f	-0.008857979
28	0x5c	-0.011515373
29	0x70	0.0062005855
30	0x72	0.007972182
31	0x78	0.01328697
32	0x5d	-0.010629576
33	0x70	0.0062005855
34	0x75	0.010629576
35	0x7c	0.016830161
36	0x98	0.041632503
37	0x42	-0.034546122
38	0x61	-0.0070863836
39	0x74	0.009743777
40	0x8d	0.031888727
41	0x50	-0.022144949
42	0x86	0.025688142
43	0x5b	-0.012401171
44	0x63	-0.005314788
45	0x72	0.007972182
46	0x63	-0.005314788
47	0x64	-0.0044289897
48	0x8f	0.033660322
49	0x8c	0.031002928
50	0x70	0.0062005855
51	0x65	-0.0035431918
52	0x5c	-0.011515373
53	0x6a	0.00088579796
54	0x62	-0.0062005855
55	0x60	-0.007972182
56	0x79	0.014172767
57	0x46	-0.031002928
58	0x69	0.0
59	0x6c	0.002657394
60	0x44	-0.032774523
61	0x44	-0.032774523
62	0x85	0.024802342
63	0x32	-0.04871889
64	0x59	-0.014172767
65	0x67	-0.0017715959
66	0x5a	-0.01328697
67	0x28	-0.05757687
68	0x8a	0.029231332
69	0x48	-0.029231332
70	0x7d	0.017715959
71	0x77	0.012401171
72	0x39	-0.042518303
73	0x66	-0.002657394
74	0x85	0.024802342
75	0x77	0.012401171
76	0x6b	0.0017715959
77	0x74	0.009743777
78	0x67	-0.0017715959
79	0x83	0.023030747
80	0x5a	-0.01328697
81	0x57	-0.015944364
82	0x60	-0.007972182
83	0x88	0.027459737
84	0x76	0.011515373
85	0x67	-0.0017715959
86	0x89	0.028345535
87	0x2e	-0.05226208
88	0x95	0.03897511
89	0x70	0.0062005855
90	0xa5	0.05314788
91	0x91	0.035431918
92	0x6c	0.002657394
93	0x6d	0.0035431918
94	0x3e	-0.038089313
95	0x65	-0.0035431918
96	0x78	0.01328697
97	0x57	-0.015944364
98	0x60	-0.007972182
99	0x47	-0.03011713
100	0x70	0.0062005855
101	0x98	0.041632503
102	0x6c	0.002657394
103	0x80	0.020373354
104	0x67	-0.0017715959
105	0x57	-0.015944364
106	0x5d	-0.010629576
107	0xc5	0.081493415
108	0x40	-0.036317717
109	0x57	-0.015944364
110	0x8b	0.03011713
111	0x56	-0.016830161
112	0x8d	0.031888727
113	0x4b	-0.02657394
114	0x5e	-0.009743777
115	0x4e	-0.023916544
116	0x7b	0.015944364
117	0x2d	-0.05314788
118	0x75	0.010629576
119	0xa3	0.051376283
120	0x71	0.0070863836
121	0xa4	0.05226208
122	0x40	-0.036317717
123	0x8c	0.031002928
124	0x53	-0.019487554
125	0x66	-0.002657394
126	0x9e	0.046947293
127	0x6a	0.00088579796
128	0x78	0.01328697
129	0x85	0.024802342
130	0x5d	-0.010629576
131	0x78	0.01328697
132	0x4e	-0.023916544
133	0x6d	0.0035431918
134	0x3e	-0.038089313
135	0x64	-0.0044289897
136	0x83	0.023030747
137	0x9c	0.045175694
138	0x61	-0.0070863836
139	0x6b	0.0017715959
140	0x68	-0.00088579796
141	0x7d	0.017715959
142	0x90	0.034546122
143	0x34	-0.046947293
144	0x87	0.02657394
145	0x71	0.0070863836
146	0x5c	-0.011515373
147	0xad	0.06023426
148	0x71	0.0070863836
149	0x5b	-0.012401171
150	0x57	-0.015944364
151	0x6f	0.005314788
152	0x4e	-0.023916544
153	0x5a	-0.01328697
154	0x5d	-0.010629576
155	0x79	0.014172767
156	0x58	-0.015058565
157	0x6b	0.0017715959
158	0x86	0.025688142
159	0x6f	0.005314788
160	0x7a	0.015058565
161	0x93	0.037203513
162	0x69	0.0
163	0x7b	0.015944364
164	0x57	-0.015944364
165	0x71	0.0070863836
166	0x6c	0.002657394
167	0x46	-0.031002928
168	0x67	-0.0017715959
169	0x83	0.023030747
170	0x8c	0.031002928
171	0x5a	-0.01328697
172	0x69	0.0
173	0x6a	0.00088579796
174	0x66	-0.002657394
175	0xa6	0.054033674
176	0x8b	0.03011713
177	0x63	-0.005314788
178	0x54	-0.018601757
179	0x66	-0.002657394
180	0x7f	0.019487554
181	0x6e	0.0044289897
182	0x5e	-0.009743777
183	0x66	-0.002657394
184	0x4b	-0.02657394
185	0x47	-0.03011713
186	0x85	0.024802342
187	0x53	-0.019487554
188	0x73	0.008857979
189	0x6d	0.0035431918
190	0x3b	-0.040746707
191	0x5d	-0.010629576
192	0x6b	0.0017715959
193	0x6a	0.00088579796
194	0x80	0.020373354
195	0x6e	0.0044289897
196	0x51	-0.021259151
197	0x68	-0.00088579796
198	0x53	-0.019487554
199	0x56	-0.016830161
200	0xb4	0.066434845
201	0x9d	0.046061493
202	0x76	0.011515373
203	0x2c	-0.054033674
204	0x98	0.041632503
205	0x6c	0.002657394
206	0x82	0.022144949
207	0x51	-0.021259151
208	0xa4	0.05226208
209	0x4f	-0.023030747
210	0x55	-0.017715959
211	0x7a	0.015058565
212	0x59	-0.014172767
213	0x9c	0.045175694
214	0x4b	-0.02657394
215	0x42	-0.034546122
216	0x8a	0.029231332
217	0x61	-0.0070863836
218	0x89	0.028345535
219	0x88	0.027459737
220	0x63	-0.005314788
221	0x3b	-0.040746707
222	0x9c	0.045175694
223	0x9b	0.044289898
224	0x5f	-0.008857979
225	0x71	0.0070863836
226	0x69	0.0
227	0x77	0.012401171
228	0x67	-0.0017715959
229	0x7b	0.015944364
230	0x6e	0.0044289897
231	0x48	-0.029231332
232	0x7e	0.018601757
233	0x9a	0.0434041
234	0x43	-0.033660322
235	0x35	-0.046061493
236	0x80	0.020373354
237	0x75	0.010629576
238	0x66	-0.002657394
239	0x74	0.009743777
240	0x51	-0.021259151
241	0x76	0.011515373
242	0x57	-0.015944364
243	0x5a	-0.01328697
244	0x62	-0.0062005855
245	0x6d	0.0035431918
246	0x3b	-0.040746707
247	0x6b	0.0017715959
248	0x64	-0.0044289897
249	0x7d	0.017715959
250	0x57	-0.015944364
251	0x6a	0.00088579796
252	0x5f	-0.008857979
253	0x82	0.022144949
254	0x5b	-0.012401171
255	0x92	0.036317717

mnas_v4_a_035_1/feature_network/cell_11/op_0/project_0/weights_quant/FakeQuantWithMinMaxVars u1 [32, 1, 1, 192] scale=0.0102480445 zero_point=116
0	0x65	-0.15372066
1	0x7e	0.10248044
2	0x5c	-0.24595307
3	0x78	0.040992178
4	0x7b	0.07173631
5	0x5b	-0.25620112
6	0x86	0.1844648
7	0x7e	0.10248044
8	0x6b	-0.0922324
9	0x6a	-0.10248044
10	0x72	-0.020496089
11	0x8c	0.24595307
12	0x73	-0.0102480445
13	0x5f	-0.21520893
14	0x7b	0.07173631
15	0x76	0.020496089
16	0x7d	0.0922324
17	0x65	-0.15372066
18	0x7c	0.081984356
19	0x84	0.16396871
20	0x62	-0.1844648
21	0x72	-0.020496089
22	0x6f	-0.05124022
23	0x72	-0.020496089
24	0x60	-0.20496088
25	0x5f	-0.21520893
26	0x61	-0.19471285
27	0x5d	-0.23570502
28	0x66	-0.14347263
29	0x77	0.030744134
30	0x72	-0.020496089
31	0x61	-0.19471285
32	0x77	0.030744134
33	0x6c	-0.081984356
34	0x63	-0.17421676
35	0x66	-0.14347263
36	0x74	0.0
37	0x76	0.020496089
38	0x70	-0.040992178
39	0x63	-0.17421676
40	0x72	-0.020496089
41	0x79	0.05124022
42	0x7a	0.061488267
43	0x6a	-0.10248044
44	0x6d	-0.07173631
45	0x83	0.15372066
46	0x6a	-0.10248044
47	0x70	-0.040992178
48	0x6c	-0.081984356
49	0x6b	-0.0922324
50	0x7b	0.07173631
51	0x6e	-0.061488267
52	0x74	0.0
53	0x73	-0.0102480445
54	0x71	-0.030744134
55	0x77	0.030744134
56	0x81	0.13322458
57	0x5d	-0.23570502
58	0x60	-0.20496088
59	0x67	-0.13322458
60	0x6d	-0.07173631
61	0x6d	-0.07173631
62	0x93	0.3176894
63	0x7a	0.061488267
64	0x7d	0.0922324
65	0x60	-0.20496088
66	0x74	0.0
67	0x83	0.15372066
68	0x7a	0.061488267
69	0x71	-0.030744134
70	0x84	0.16396871
71	0x7a	0.061488267
72	0x8a	0.22545698
73	0x6c	-0.081984356
74	0x71	-0.030744134
75	0x78	0.040992178
76	0x73	-0.0102480445
77	0x71	-0.030744134
78	0x7d	0.0922324
79	0x6f	-0.05124022
80	0x7a	0.061488267
81	0x79	0.05124022
82	0x75	0.0102480445
83	0x87	0.19471285
84	0x85	0.17421676
85	0x74	0.0
86	0x7a	0.061488267
87	0x73	-0.0102480445
88	0x6f	-0.05124022
89	0x88	0.20496088
90	0x6f	-0.05124022
91	0x7a	0.061488267
92	0x76	0.020496089
93	0x60	-0.20496088
94	0x61	-0.19471285
95	0x61	-0.19471285
96	0x71	-0.030744134
97	0x75	0.0102480445
98	0x5c	-0.24595307
99	0x7f	0.11272849
100	0x75	0.0102480445
101	0x66	-0.14347263
102	0x6f	-0.05124022
103	0x72	-0.020496089
104	0x80	0.122976534
105	0x79	0.05124022
106	0x71	-0.030744134
107	0x7b	0.07173631
108	0x67	-0.13322458
109	0x5a	-0.26644915
110	0x5f	-0.21520893
111	0x80	0.122976534
112	0x66	-0.14347263
113	0x8c	0.24595307
114	0x6e	-0.061488267
115	0x69	-0.11272849
116	0x7c	0.081984356
117	0x74	0.0
118	0x7b	0.07173631
119	0x6d	-0.07173631
120	0x84	0.16396871
121	0x61	-0.19471285
122	0x67	-0.13322458
123	0x79	0.05124022
124	0x7b	0.07173631
125	0x62	-0.1844648
126	0x63	-0.17421676
127	0x64	-0.16396871
128	0x75	0.0102480445
129	0x74	0.0
130	0x73	-0.0102480445
131	0x77	0.030744134
132	0x7a	0.061488267
133	0x74	0.0
134	0x88	0.20496088
135	0x8a	0.22545698
136	0x6f	-0.05124022
137	0x7a	0.061488267
138	0x75	0.0102480445
139	0x71	-0.030744134
140	0x73	-0.0102480445
141	0x7f	0.11272849
142	0x72	-0.020496089
143	0x6c	-0.081984356
144	0x7a	0.061488267
145	0x71	-0.030744134
146	0x73	-0.0102480445
147	0x62	-0.1844648
148	0x7d	0.0922324
149	0x68	-0.122976534
150	0x61	-0.19471285
151	0x6f	-0.05124022
152	0x7a	0.061488267
153	0x70	-0.040992178
154	0x71	-0.030744134
155	0x80	0.122976534
156	0x74	0.0
157	0x5f	-0.21520893
158	0x7c	0.081984356
159	0x79	0.05124022
160	0x72	-0.020496089
161	0x7e	0.10248044
162	0x81	0.13322458
163	0x6f	-0.05124022
164	0x6d	-0.07173631
165	0x71	-0.030744134
166	0x6c	-0.081984356
167	0x62	-0.1844648
168	0x80	0.122976534
169	0x74	0.0
170	0x66	-0.14347263
171	0x55	-0.3176894
172	0x82	0.14347263
173	0x7b	0.07173631
174	0x78	0.040992178
175	0x71	-0.030744134
176	0x78	0.040992178
177	0x6f	-0.05124022
178	0x69	-0.11272849
179	0x65	-0.15372066
180	0x5f	-0.21520893
181	0x64	-0.16396871
182	0x7b	0.07173631
183	0x75	0.0102480445
184	0x77	0.030744134
185	0x83	0.15372066
186	0x79	0.05124022
187	0x84	0.16396871
188	0x74	0.0
189	0x62	-0.1844648
190	0x85	0.17421676
191	0x68	-0.122976534
192	0x65	-0.15372066
193	0x84	0.16396871
194	0x6e	-0.061488267
195	0x7e	0.10248044
196	0x76	0.020496089
197	0x83	0.15372066
198	0x81	0.13322458
199	0x78	0.040992178
200	0x75	0.0102480445
201	0x71	-0.030744134
202	0x86	0.1844648
203	0x71	-0.030744134
204	0x91	0.2971933
205	0x63	-0.17421676
206	0x8d	0.25620112
207	0x7e	0.10248044
208	0x6e	-0.061488267
209	0x63	-0.17421676
210	0x87	0.19471285
211	0x7b	0.07173631
212	0x72	-0.020496089
213	0x74	0.0
214	0x80	0.122976534
215	0x80	0.122976534
216	0x59	-0.2766972
217	0x6c	-0.081984356
218	0x79	0.05124022
219	0x64	-0.16396871
220	0x7c	0.081984356
221	0x71	-0.030744134
222	0x76	0.020496089
223	0x86	0.1844648
224	0x6d	-0.07173631
225	0x6c	-0.081984356
226	0x79	0.05124022
227	0x62	-0.1844648
228	0x6d	-0.07173631
229	0x77	0.030744134
230	0x77	0.030744134
231	0x7a	0.061488267
232	0x71	-0.030744134
233	0x72	-0.020496089
234	0x84	0.16396871
235	0x6f	-0.05124022
236	0x5b	-0.25620112
237	0x74	0.0
238	0x86	0.1844648
239	0x72	-0.020496089
240	0x76	0.020496089
241	0x77	0.030744134
242	0x75	0.0102480445
243	0x61	-0.19471285
244	0x75	0.0102480445
245	0x78	0.040992178
246	0x82	0.14347263
247	0x85	0.17421676
248	0x7f	0.11272849
249	0x87	0.19471285
250	0x76	0.020496089
251	0x6d	-0.07173631
252	0x79	0.05124022
253	0x6e	-0.061488267
254	0x75	0.0102480445
255	0x75	0.0102480445

mnas_v4_a_035_1/feature_network/cell_13/op_0/depthwise_0/weights_quant/FakeQuantWithMinMaxVars u1 [1, 5, 5, 384] scale=0.43232277 zero_point=63
0	0x3f	0.0
1	0x3f	0.0
2	0x3f	0.0
3	0x3e	-0.43232277
4	0x3f	0.0
5	0x3f	0.0
6	0x3d	-0.86464554
7	0x3f	0.0
8	0x3f	0.0
9	0x3f	0.0
10	0x3f	0.0
11	0x3f	0.0
12	0x3e	-0.43232277
13	0x3f	0.0
14	0x3f	0.0
15	0x3f	0.0
16	0x3f	0.0
17	0x3f	0.0
18	0x3f	0.0
19	0x40	0.43232277
20	0x3f	0.0
21	0x3f	0.0
22	0x3f	0.0
23	0x3f	0.0
24	0x3f	0.0
25	0x3f	0.0
26	0x3f	0.0
27	0x3f	0.0
28	0x3f	0.0
29	0x3f	0.0
30	0x3f	0.0
31	0x3f	0.0
32	0x3e	-0.43232277
33	0x3f	0.0
34	0x3f	0.0
35	0x3f	0.0
36	0x3f	0.0
37	0x3f	0.0
38	0x3f	0.0
39	0x3f	0.0
40	0x40	0.43232277
41	0x3f	0.0
42	0x3f	0.0
43	0x3f	0.0
44	0x3f	0.0
45	0x3e	-0.43232277
46	0x3e	-0.43232277
47	0x3f	0.0
48	0x40	0.43232277
49	0x3e	-0.43232277
50	0x3f	0.0
51	0x40	0.43232277
52	0x40	0.43232277
53	0x3f	0.0
54	0x3f	0.0
55	0x3f	0.0
56	0x3f	0.0
57	0x3f	0.0
58	0x3f	0.0
59	0x3f	0.0
60	0x40	0.43232277
61	0x3f	0.0
62	0x3f	0.0
63	0x3f	0.0
64	0x3f	0.0
65	0x3e	-0.43232277
66	0x3f	0.0
67	0x40	0.43232277
68	0x3e	-0.43232277
69	0x42	1.2969683
70	0x3f	0.0
71	0x3f	0.0
72	0x3f	0.0
73	0x3f	0.0
74	0x3f	0.0
75	0x3f	0.0
76	0x40	0.43232277
77	0x3e	-0.43232277
78	0x3f	0.0
79	0x3f	0.0
80	0x3e	-0.43232277
81	0x3f	0.0
82	0x3f	0.0
83	0x3f	0.0
84	0x3e	-0.43232277
85	0x3f	0.0
86	0x3f	0.0
87	0x40	0.43232277
88	0x3e	-0.43232277
89	0x3f	0.0
90	0x40	0.43232277
91	0x3f	0.0
92	0x3f	0.0
93	0x40	0.43232277
94	0x3f	0.0
95	0x3f	0.0
96	0x3f	0.0
97	0x3f	0.0
98	0x3f	0.0
99	0x3f	0.0
100	0x3f	0.0
101	0x3f	0.0
102	0x3f	0.0
103	0x3f	0.0
104	0x3f	0.0
105	0x3f	0.0
106	0x40	0.43232277
107	0x3f	0.0
108	0x3f	0.0
109	0x3e	-0.43232277
110	0x3e	-0.43232277
111	0x3f	0.0
112	0x3e	-0.43232277
113	0x3f	0.0
114	0x3f	0.0
115	0x3f	0.0
116	0x3e	-0.43232277
117	0x3e	-0.43232277
118	0x3f	0.0
119	0x3f	0.0
120	0x3f	0.0
121	0x3f	0.0
122	0x3e	-0.43232277
123	0x3f	0.0
124	0x3f	0.0
125	0x40	0.43232277
126	0x3f	0.0
127	0x3f	0.0
128	0x3e	-0.43232277
129	0x3e	-0.43232277
130	0x3f	0.0
131	0x3f	0.0
132	0x3f	0.0
133	0x3f	0.0
134	0x3e	-0.43232277
135	0x3f	0.0
136	0x3e	-0.43232277
137	0x3e	-0.43232277
138	0x3f	0.0
139	0x3e	-0.43232277
140	0x3f	0.0
141	0x3f	0.0
142	0x3f	0.0
143	0x40	0.43232277
144	0x3e	-0.43232277
145	0x3f	0.0
146	0x3f	0.0
147	0x3e	-0.43232277
148	0x3f	0.0
149	0x3f	0.0
150	0x3e	-0.43232277
151	0x3f	0.0
152	0x3f	0.0
153	0x3f	0.0
154	0x3e	-0.43232277
155	0x3f	0.0
156	0x3f	0.0
157	0x3e	-0.43232277
158	0x3f	0.0
159	0x3f	0.0
160	0x3f	0.0
161	0x3f	0.0
162	0x40	0.43232277
163	0x3f	0.0
164	0x3f	0.0
165	0x3e	-0.43232277
166	0x3e	-0.43232277
167	0x3f	0.0
168	0x3f	0.0
169	0x3f	0.0
170	0x3f	0.0
171	0x3f	0.0
172	0x3e	-0.43232277
173	0x3f	0.0
174	0x3f	0.0
175	0x3f	0.0
176	0x3f	0.0
177	0x3f	0.0
178	0x3f	0.0
179	0x3f	0.0
180	0x3e	-0.43232277
181	0x3f	0.0
182	0x41	0.86464554
183	0x3f	0.0
184	0x3f	0.0
185	0x3f	0.0
186	0x40	0.43232277
187	0x40	0.43232277
188	0x3f	0.0
189	0x3f	0.0
190	0x3e	-0.43232277
191	0x3f	0.0
192	0x3f	0.0
193	0x3e	-0.43232277
194	0x3f	0.0
195	0x3f	0.0
196	0x3f	0.0
197	0x3f	0.0
198	0x3f	0.0
199	0x40	0.43232277
200	0x3f	0.0
201	0x3f	0.0
202	0x3f	0.0
203	0x3d	-0.86464554
204	0x3f	0.0
205	0x3f	0.0
206	0x3f	0.0
207	0x3e	-0.43232277
208	0x3e	-0.43232277
209	0x3f	0.0
210	0x3f	0.0
211	0x3e	-0.43232277
212	0x3f	0.0
213	0x3f	0.0
214	0x3e	-0.43232277
215	0x3f	0.0
216	0x40	0.43232277
217	0x3f	0.0
218	0x3f	0.0
219	0x3f	0.0
220	0x3f	0.0
221	0x3f	0.0
222	0x40	0.43232277
223	0x3f	0.0
224	0x3f	0.0
225	0x40	0.43232277
226	0x3f	0.0
227	0x3e	-0.43232277
228	0x40	0.43232277
229	0x3f	0.0
230	0x3e	-0.43232277
231	0x3f	0.0
232	0x40	0.43232277
233	0x5e	13.402006
234	0x3f	0.0
235	0x3f	0.0
236	0x40	0.43232277
237	0x3f	0.0
238	0x3f	0.0
239	0x3f	0.0
240	0x3e	-0.43232277
241	0x3f	0.0
242	0x3f	0.0
243	0x3f	0.0
244	0x3f	0.0
245	0x3f	0.0
246	0x3f	0.0
247	0x3f	0.0
248	0x3f	0.0
249	0x40	0.43232277
250	0x3e	-0.43232277
251	0x3f	0.0
252	0x3f	0.0
253	0x3f	0.0
254	0x3f	0.0
255	0x3f	0.0

mnas_v4_a_035_1/feature_network/cell_13/op_0/expand_0/weights_quant/FakeQuantWithMinMaxVars u1 [384, 1, 1, 64] scale=0.00096927356 zero_point=114
0	0x77	0.004846368
1	0x2a	-0.069787696
2	0x66	-0.011631283
3	0x78	0.0058156415
4	0x60	-0.017446924
5	0x65	-0.012600556
6	0x30	-0.063972056
7	0x84	0.017446924
8	0x68	-0.009692736
9	0x49	-0.039740216
10	0x61	-0.01647765
11	0x52	-0.031016754
12	0x6e	-0.0038770942
13	0x7a	0.0077541885
14	0x58	-0.025201112
15	0x83	0.01647765
16	0x8b	0.02423184
17	0x69	-0.008723462
18	0x19	-0.08626535
19	0xa5	0.049432952
20	0x94	0.0329553
21	0x6e	-0.0038770942
22	0x7a	0.0077541885
23	0x62	-0.015508377
24	0x86	0.019385472
25	0x5e	-0.019385472
26	0x5e	-0.019385472
27	0x7b	0.008723462
28	0x57	-0.026170386
29	0x61	-0.01647765
30	0xa6	0.050402224
31	0x8e	0.02713966
32	0x5b	-0.022293292
33	0x9d	0.041678764
34	0x7c	0.009692736
35	0x5c	-0.021324018
36	0x41	-0.047494404
37	0x95	0.033924576
38	0x6d	-0.004846368
39	0x73	0.00096927356
40	0x78	0.0058156415
41	0x78	0.0058156415
42	0x71	-0.00096927356
43	0x58	-0.025201112
44	0x93	0.031986028
45	0x72	0.0
46	0x2b	-0.06881842
47	0x8c	0.025201112
48	0xc6	0.081418976
49	0x63	-0.014539103
50	0x98	0.036832396
51	0x88	0.021324018
52	0x61	-0.01647765
53	0x93	0.031986028
54	0x58	-0.025201112
55	0x65	-0.012600556
56	0x62	-0.015508377
57	0x6d	-0.004846368
58	0x67	-0.010662009
59	0x84	0.017446924
60	0x80	0.01356983
61	0x74	0.0019385471
62	0x79	0.006784915
63	0x78	0.0058156415
64	0x77	0.004846368
65	0x63	-0.014539103
66	0x92	0.031016754
67	0x6a	-0.0077541885
68	0x85	0.018416198
69	0x77	0.004846368
70	0x33	-0.061064236
71	0x6c	-0.0058156415
72	0x63	-0.014539103
73	0x79	0.006784915
74	0x60	-0.017446924
75	0x86	0.019385472
76	0x6f	-0.0029078207
77	0x95	0.033924576
78	0x6a	-0.0077541885
79	0x6b	-0.006784915
80	0x72	0.0
81	0x61	-0.01647765
82	0x4a	-0.038770944
83	0x7f	0.012600556
84	0xb0	0.06009496
85	0x62	-0.015508377
86	0x62	-0.015508377
87	0x7f	0.012600556
88	0x68	-0.009692736
89	0xad	0.05718714
90	0x6f	-0.0029078207
91	0x7b	0.008723462
92	0x66	-0.011631283
93	0x7f	0.012600556
94	0x63	-0.014539103
95	0x7a	0.0077541885
96	0x5f	-0.018416198
97	0x8e	0.02713966
98	0x63	-0.014539103
99	0x6e	-0.0038770942
100	0x60	-0.017446924
101	0x83	0.01647765
102	0x8f	0.028108934
103	0x5f	-0.018416198
104	0x76	0.0038770942
105	0x67	-0.010662009
106	0x62	-0.015508377
107	0x86	0.019385472
108	0x75	0.0029078207
109	0x53	-0.03004748
110	0x67	-0.010662009
111	0x93	0.031986028
112	0x5c	-0.021324018
113	0x6c	-0.0058156415
114	0x64	-0.01356983
115	0x8f	0.028108934
116	0x7b	0.008723462
117	0x82	0.015508377
118	0x48	-0.040709488
119	0x8f	0.028108934
120	0x45	-0.043617312
121	0x31	-0.06300278
122	0x6d	-0.004846368
123	0x8c	0.025201112
124	0x79	0.006784915
125	0x50	-0.0329553
126	0x58	-0.025201112
127	0x68	-0.009692736
128	0x58	-0.025201112
129	0x7a	0.0077541885
130	0x4b	-0.037801668
131	0x61	-0.01647765
132	0x84	0.017446924
133	0x90	0.029078206
134	0x68	-0.009692736
135	0x48	-0.040709488
136	0x70	-0.0019385471
137	0x78	0.0058156415
138	0x6a	-0.0077541885
139	0x88	0.021324018
140	0x73	0.00096927356
141	0x8f	0.028108934
142	0x61	-0.01647765
143	0x53	-0.03004748
144	0x86	0.019385472
145	0x98	0.036832396
146	0x86	0.019385472
147	0x56	-0.02713966
148	0x7a	0.0077541885
149	0x54	-0.029078206
150	0x85	0.018416198
151	0x5e	-0.019385472
152	0x6f	-0.0029078207
153	0x79	0.006784915
154	0x64	-0.01356983
155	0x75	0.0029078207
156	0x7f	0.012600556
157	0x87	0.020354744
158	0x80	0.01356983
159	0x4e	-0.034893848
160	0x6b	-0.006784915
161	0x4a	-0.038770944
162	0x56	-0.02713966
163	0x85	0.018416198
164	0x9c	0.040709488
165	0x49	-0.039740216
166	0x97	0.03586312
167	0x8e	0.02713966
168	0x7c	0.009692736
169	0x76	0.0038770942
170	0x5f	-0.018416198
171	0x6e	-0.0038770942
172	0x6a	-0.0077541885
173	0x6f	-0.0029078207
174	0x94	0.0329553
175	0x6a	-0.0077541885
176	0x6e	-0.0038770942
177	0x41	-0.047494404
178	0x68	-0.009692736
179	0x7d	0.010662009
180	0x92	0.031016754
181	0x53	-0.03004748
182	0x7e	0.011631283
183	0x86	0.019385472
184	0x65	-0.012600556
185	0x75	0.0029078207
186	0x7b	0.008723462
187	0x4a	-0.038770944
188	0x66	-0.011631283
189	0x78	0.0058156415
190	0xaf	0.059125688
191	0x61	-0.01647765
192	0x90	0.029078206
193	0x69	-0.008723462
194	0x86	0.019385472
195	0x85	0.018416198
196	0x5c	-0.021324018
197	0x82	0.015508377
198	0x59	-0.02423184
199	0x9a	0.038770944
200	0x68	-0.009692736
201	0xa3	0.047494404
202	0x53	-0.03004748
203	0x95	0.033924576
204	0x8a	0.023262566
205	0xbe	0.07366479
206	0x60	-0.017446924
207	0x78	0.0058156415
208	0x61	-0.01647765
209	0x69	-0.008723462
210	0x53	-0.03004748
211	0x7b	0.008723462
212	0xa4	0.04846368
213	0x71	-0.00096927356
214	0x86	0.019385472
215	0x7e	0.011631283
216	0x8e	0.02713966
217	0x8b	0.02423184
218	0x61	-0.01647765
219	0x6c	-0.0058156415
220	0x65	-0.012600556
221	0x78	0.0058156415
222	0x91	0.03004748
223	0x7e	0.011631283
224	0x72	0.0
225	0xa7	0.0513715
226	0x42	-0.046525132
227	0x7b	0.008723462
228	0x6c	-0.0058156415
229	0xa1	0.045555856
230	0x39	-0.055248592
231	0x98	0.036832396
232	0x73	0.00096927356
233	0x4e	-0.034893848
234	0xab	0.055248592
235	0x9f	0.043617312
236	0x58	-0.025201112
237	0x84	0.017446924
238	0x4f	-0.033924576
239	0x73	0.00096927356
240	0x91	0.03004748
241	0x9f	0.043617312
242	0x49	-0.039740216
243	0x98	0.036832396
244	0x6d	-0.004846368
245	0x62	-0.015508377
246	0xae	0.058156412
247	0x3c	-0.052340772
248	0x92	0.031016754
249	0x9a	0.038770944
250	0x61	-0.01647765
251	0x85	0.018416198
252	0x75	0.0029078207
253	0x84	0.017446924
254	0x70	-0.0019385471
255	0x99	0.037801668

mnas_v4_a_035_1/feature_network/cell_13/op_0/project_0/weights_quant/FakeQuantWithMinMaxVars u1 [64, 1, 1, 384] scale=0.004949247 zero_point=127
0	0x74	-0.054441717
1	0x90	0.0841372
2	0x99	0.12868042
3	0x88	0.04454322
4	0x79	-0.029695481
5	0xa4	0.18312214
6	0x68	-0.11383268
7	0x4c	-0.2524116
8	0x8d	0.06928946
9	0x80	0.004949247
10	0xba	0.29200557
11	0x52	-0.22271611
12	0x7f	0.0
13	0x97	0.118781924
14	0xa3	0.17817289
15	0x58	-0.19302063
16	0x47	-0.27715784
17	0x7c	-0.0148477405
18	0xaa	0.21281762
19	0x69	-0.10888343
20	0x5f	-0.1583759
21	0x72	-0.06434021
22	0xa4	0.18312214
23	0xb6	0.27220857
24	0x56	-0.20291913
25	0x69	-0.10888343
26	0x79	-0.029695481
27	0x89	0.04949247
28	0x73	-0.059390962
29	0x7d	-0.009898494
30	0x8d	0.06928946
31	0x7a	-0.024746235
32	0xa4	0.18312214
33	0x78	-0.03464473
34	0x74	-0.054441717
35	0x5b	-0.17817289
36	0xbd	0.30685332
37	0xb5	0.26725933
38	0xa5	0.18807139
39	0x8a	0.054441717
40	0x67	-0.118781924
41	0x3c	-0.33159956
42	0x54	-0.21281762
43	0x17	-0.5147217
44	0x4c	-0.2524116
45	0x8f	0.07918795
46	0xa2	0.17322364
47	0x85	0.029695481
48	0x7a	-0.024746235
49	0x57	-0.19796988
50	0x81	0.009898494
51	0x7e	-0.004949247
52	0x7f	0.0
53	0xa0	0.16332515
54	0x7a	-0.024746235
55	0x65	-0.12868042
56	0x67	-0.118781924
57	0x3f	-0.3167518
58	0xa1	0.1682744
59	0x99	0.12868042
60	0x71	-0.06928946
61	0x5f	-0.1583759
62	0x72	-0.06434021
63	0x78	-0.03464473
64	0x4a	-0.2623101
65	0x82	0.0148477405
66	0x90	0.0841372
67	0x75	-0.04949247
68	0x83	0.019796988
69	0x83	0.019796988
70	0x87	0.039593976
71	0x8e	0.0742387
72	0x31	-0.38604125
73	0x5a	-0.18312214
74	0x8b	0.059390962
75	0x81	0.009898494
76	0x75	-0.04949247
77	0x83	0.019796988
78	0x82	0.0148477405
79	0x62	-0.14352816
80	0x90	0.0841372
81	0x71	-0.06928946
82	0x7e	-0.004949247
83	0x47	-0.27715784
84	0x7a	-0.024746235
85	0x46	-0.28210708
86	0x5a	-0.18312214
87	0x5e	-0.16332515
88	0x53	-0.21776687
89	0xb1	0.24746235
90	0x9a	0.13362966
91	0x45	-0.28705633
92	0x4b	-0.25736085
93	0x20	-0.47017846
94	0x69	-0.10888343
95	0x93	0.09898494
96	0x84	0.024746235
97	0x8a	0.054441717
98	0x68	-0.11383268
99	0x80	0.004949247
100	0xa7	0.19796988
101	0xad	0.22766536
102	0x63	-0.13857892
103	0x98	0.12373117
104	0x82	0.0148477405
105	0x9b	0.13857892
106	0xa8	0.20291913
107	0x4d	-0.24746235
108	0x8b	0.059390962
109	0x5e	-0.16332515
110	0x3e	-0.32170105
111	0x74	-0.054441717
112	0x94	0.10393418
113	0x82	0.0148477405
114	0x67	-0.118781924
115	0x75	-0.04949247
116	0xaf	0.23756385
117	0x81	0.009898494
118	0x66	-0.12373117
119	0x99	0.12868042
120	0x63	-0.13857892
121	0x47	-0.27715784
122	0xa8	0.20291913
123	0x35	-0.3662443
124	0x94	0.10393418
125	0xa0	0.16332515
126	0x88	0.04454322
127	0x8d	0.06928946
128	0x62	-0.14352816
129	0x9a	0.13362966
130	0x40	-0.31180257
131	0x4b	-0.25736085
132	0x38	-0.35139653
133	0x94	0.10393418
134	0x81	0.009898494
135	0x92	0.09403569
136	0x66	-0.12373117
137	0xa8	0.20291913
138	0x65	-0.12868042
139	0x66	-0.12373117
140	0x73	-0.059390962
141	0x5b	-0.17817289
142	0xa1	0.1682744
143	0x93	0.09898494
144	0xa2	0.17322364
145	0x78	-0.03464473
146	0x71	-0.06928946
147	0x85	0.029695481
148	0xbb	0.2969548
149	0x8d	0.06928946
150	0x94	0.10393418
151	0xa6	0.19302063
152	0x45	-0.28705633
153	0x73	-0.059390962
154	0x61	-0.1484774
155	0xbd	0.30685332
156	0xa7	0.19796988
157	0xa8	0.20291913
158	0x65	-0.12868042
159	0x9e	0.15342666
160	0x76	-0.04454322
161	0x9d	0.1484774
162	0xa9	0.20786837
163	0xa0	0.16332515
164	0x89	0.04949247
165	0x4d	-0.24746235
166	0x71	-0.06928946
167	0x75	-0.04949247
168	0x60	-0.15342666
169	0x4b	-0.25736085
170	0x5c	-0.17322364
171	0x94	0.10393418
172	0x92	0.09403569
173	0x7b	-0.019796988
174	0x80	0.004949247
175	0x91	0.08908644
176	0x9e	0.15342666
177	0x95	0.10888343
178	0x8f	0.07918795
179	0x5c	-0.17322364
180	0x76	-0.04454322
181	0x8f	0.07918795
182	0x84	0.024746235
183	0x5f	-0.1583759
184	0x86	0.03464473
185	0x62	-0.14352816
186	0x8e	0.0742387
187	0x4c	-0.2524116
188	0x76	-0.04454322
189	0x98	0.12373117
190	0x86	0.03464473
191	0x60	-0.15342666
192	0x78	-0.03464473
193	0xa4	0.18312214
194	0x59	-0.18807139
195	0x6f	-0.07918795
196	0x62	-0.14352816
197	0x77	-0.039593976
198	0x7e	-0.004949247
199	0xa7	0.19796988
200	0x97	0.118781924
201	0xb9	0.28705633
202	0x94	0.10393418
203	0x7d	-0.009898494
204	0x60	-0.15342666
205	0xc5	0.3464473
206	0xa3	0.17817289
207	0x96	0.11383268
208	0x67	-0.118781924
209	0x61	-0.1484774
210	0x86	0.03464473
211	0x62	-0.14352816
212	0x90	0.0841372
213	0xa1	0.1682744
214	0x34	-0.37119353
215	0x8b	0.059390962
216	0x93	0.09898494
217	0x9c	0.14352816
218	0x80	0.004949247
219	0x76	-0.04454322
220	0x4a	-0.2623101
221	0x8b	0.059390962
222	0x5b	-0.17817289
223	0x5b	-0.17817289
224	0x2c	-0.4107875
225	0x5a	-0.18312214
226	0x68	-0.11383268
227	0x71	-0.06928946
228	0x6f	-0.07918795
229	0x75	-0.04949247
230	0xa3	0.17817289
231	0x86	0.03464473
232	0x96	0.11383268
233	0x82	0.0148477405
234	0xa8	0.20291913
235	0xaa	0.21281762
236	0x9a	0.13362966
237	0x3b	-0.3365488
238	0xcc	0.381092
239	0x8c	0.06434021
240	0x51	-0.22766536
241	0x89	0.04949247
242	0x68	-0.11383268
243	0x55	-0.20786837
244	0x60	-0.15342666
245	0x82	0.0148477405
246	0x42	-0.30190405
247	0x70	-0.0742387
248	0x43	-0.2969548
249	0xa2	0.17322364
250	0x57	-0.19796988
251	0x73	-0.059390962
252	0x8c	0.06434021
253	0x71	-0.06928946
254	0x62	-0.14352816
255	0xa0	0.16332515

mnas_v4_a_035_1/feature_network/cell_14/op_0/depthwise_0/weights_quant/FakeQuantWithMinMaxVars u1 [1, 5, 5, 384] scale=0.6233274 zero_point=141
0	0x8f	1.2466547
1	0x8d	0.0
2	0x8d	0.0
3	0x8e	0.6233274
4	0x8d	0.0
5	0x8f	1.2466547
6	0x8e	0.6233274
7	0x8e	0.6233274
8	0x8d	0.0
9	0x8e	0.6233274
10	0x8d	0.0
11	0x8d	0.0
12	0x8d	0.0
13	0x8d	0.0
14	0x8d	0.0
15	0x8d	0.0
16	0x8d	0.0
17	0x8c	-0.6233274
18	0x8d	0.0
19	0x8d	0.0
20	0x8c	-0.6233274
21	0x8d	0.0
22	0x8d	0.0
23	0x8d	0.0
24	0x8d	0.0
25	0x8c	-0.6233274
26	0x89	-2.4933095
27	0x8e	0.6233274
28	0x8d	0.0
29	0x8d	0.0
30	0x8d	0.0
31	0x8d	0.0
32	0x8d	0.0
33	0x8d	0.0
34	0x8d	0.0
35	0x8d	0.0
36	0x8d	0.0
37	0xa4	14.33653
38	0x8d	0.0
39	0x8b	-1.2466547
40	0x8d	0.0
41	0x8d	0.0
42	0x8d	0.0
43	0x8d	0.0
44	0x8d	0.0
45	0x8c	-0.6233274
46	0x8e	0.6233274
47	0x8d	0.0
48	0x8d	0.0
49	0x8a	-1.8699821
50	0x8c	-0.6233274
51	0x8d	0.0
52	0x8d	0.0
53	0x8c	-0.6233274
54	0x8f	1.2466547
55	0x8d	0.0
56	0x8c	-0.6233274
57	0x8d	0.0
58	0x8c	-0.6233274
59	0x8d	0.0
60	0x8d	0.0
61	0x8d	0.0
62	0x8e	0.6233274
63	0x8d	0.0
64	0x8d	0.0
65	0x8d	0.0
66	0x8d	0.0
67	0x8d	0.0
68	0x8d	0.0
69	0x8e	0.6233274
70	0x8e	0.6233274
71	0x8d	0.0
72	0x8d	0.0
73	0x8e	0.6233274
74	0x8d	0.0
75	0x8c	-0.6233274
76	0x8e	0.6233274
77	0x99	7.4799285
78	0x8e	0.6233274
79	0x8e	0.6233274
80	0x8d	0.0
81	0x8d	0.0
82	0x8e	0.6233274
83	0x8d	0.0
84	0x8d	0.0
85	0x8e	0.6233274
86	0x8d	0.0
87	0x8d	0.0
88	0x8d	0.0
89	0x8d	0.0
90	0x8d	0.0
91	0x8f	1.2466547
92	0x8d	0.0
93	0x8e	0.6233274
94	0x8d	0.0
95	0x8c	-0.6233274
96	0x8c	-0.6233274
97	0x8e	0.6233274
98	0x8d	0.0
99	0x8d	0.0
100	0x8c	-0.6233274
101	0x88	-3.1166368
102	0x90	1.8699821
103	0x8d	0.0
104	0x8e	0.6233274
105	0x8d	0.0
106	0x8d	0.0
107	0x8d	0.0
108	0x8d	0.0
109	0x8d	0.0
110	0x8d	0.0
111	0x8d	0.0
112	0x8d	0.0
113	0x8e	0.6233274
114	0x8e	0.6233274
115	0x8d	0.0
116	0x8d	0.0
117	0x8e	0.6233274
118	0x8d	0.0
119	0x8d	0.0
120	0x8d	0.0
121	0x8d	0.0
122	0x8f	1.2466547
123	0x8b	-1.2466547
124	0x8c	-0.6233274
125	0x8e	0.6233274
126	0x8d	0.0
127	0x8d	0.0
128	0x8d	0.0
129	0x8d	0.0
130	0x8c	-0.6233274
131	0x8d	0.0
132	0x8f	1.2466547
133	0x8d	0.0
134	0x8d	0.0
135	0x8f	1.2466547
136	0x8d	0.0
137	0x8d	0.0
138	0x8d	0.0
139	0x8c	-0.6233274
140	0x8d	0.0
141	0x8d	0.0
142	0x8d	0.0
143	0x8d	0.0
144	0x8d	0.0
145	0x8d	0.0
146	0x8d	0.0
147	0x8e	0.6233274
148	0x8d	0.0
149	0x8d	0.0
150	0x8e	0.6233274
151	0x8e	0.6233274
152	0x8c	-0.6233274
153	0x8d	0.0
154	0x8d	0.0
155	0x8d	0.0
156	0x8d	0.0
157	0x8e	0.6233274
158	0x8d	0.0
159	0x8d	0.0
160	0x8d	0.0
161	0x8d	0.0
162	0x8e	0.6233274
163	0x8c	-0.6233274
164	0x8d	0.0
165	0x8d	0.0
166	0x8e	0.6233274
167	0x8e	0.6233274
168	0x8d	0.0
169	0x8d	0.0
170	0x8d	0.0
171	0x8d	0.0
172	0x8e	0.6233274
173	0x8d	0.0
174	0x8d	0.0
175	0x8d	0.0
176	0x8f	1.2466547
177	0x8e	0.6233274
178	0x8e	0.6233274
179	0x8d	0.0
180	0x8f	1.2466547
181	0x8d	0.0
182	0x8d	0.0
183	0x8e	0.6233274
184	0x8c	-0.6233274
185	0x90	1.8699821
186	0x8d	0.0
187	0x8d	0.0
188	0x8d	0.0
189	0x8d	0.0
190	0x8e	0.6233274
191	0x8d	0.0
192	0x8d	0.0
193	0x8d	0.0
194	0x8e	0.6233274
195	0x8d	0.0
196	0x8d	0.0
197	0x8e	0.6233274
198	0x8d	0.0
199	0x8e	0.6233274
200	0x8d	0.0
201	0x8d	0.0
202	0x8e	0.6233274
203	0x8d	0.0
204	0x8d	0.0
205	0x8d	0.0
206	0x8d	0.0
207	0x8d	0.0
208	0x8d	0.0
209	0x8c	-0.6233274
210	0x8d	0.0
211	0x8d	0.0
212	0x8d	0.0
213	0x8d	0.0
214	0x8d	0.0
215	0x8e	0.6233274
216	0x8e	0.6233274
217	0x8d	0.0
218	0x8e	0.6233274
219	0x8d	0.0
220	0x8e	0.6233274
221	0x8d	0.0
222	0x8b	-1.2466547
223	0x8d	0.0
224	0x8e	0.6233274
225	0x8c	-0.6233274
226	0x8c	-0.6233274
227	0x8d	0.0
228	0x8e	0.6233274
229	0x8d	0.0
230	0x8c	-0.6233274
231	0x8d	0.0
232	0x8e	0.6233274
233	0x8d	0.0
234	0x8d	0.0
235	0x8d	0.0
236	0x8c	-0.6233274
237	0x8d	0.0
238	0x8f	1.2466547
239	0x8d	0.0
240	0x8d	0.0
241	0x8c	-0.6233274
242	0x8c	-0.6233274
243	0x8d	0.0
244	0x8d	0.0
245	0x8d	0.0
246	0x8d	0.0
247	0x8e	0.6233274
248	0x8d	0.0
249	0x8c	-0.6233274
250	0x8d	0.0
251	0x8e	0.6233274
252	0x8d	0.0
253	0x8c	-0.6233274
254	0x8d	0.0
255	0x8e	0.6233274

mnas_v4_a_035_1/feature_network/cell_14/op_0/expand_0/weights_quant/FakeQuantWithMinMaxVars u1 [384, 1, 1, 64] scale=0.0011874461 zero_point=136
0	0x7e	-0.011874461
1	0x8d	0.0059372303
2	0x78	-0.018999137
3	0x93	0.013061907
4	0x91	0.010687014
5	0x85	-0.0035623382
6	0x79	-0.017811691
7	0x7b	-0.015436798
8	0x82	-0.0071246764
9	0xa7	0.036810827
10	0x92	0.011874461
11	0x6a	-0.035623383
12	0x7d	-0.013061907
13	0x7d	-0.013061907
14	0x8f	0.008312123
15	0x9f	0.02731126
16	0x85	-0.0035623382
17	0x87	-0.0011874461
18	0x6f	-0.029686151
19	0x8b	0.0035623382
20	0x8b	0.0035623382
21	0x91	0.010687014
22	0x8c	0.0047497842
23	0x7d	-0.013061907
24	0x90	0.0094995685
25	0x8f	0.008312123
26	0x70	-0.028498705
27	0x7b	-0.015436798
28	0x8d	0.0059372303
29	0x74	-0.023748921
30	0x75	-0.022561476
31	0x8b	0.0035623382
32	0x92	0.011874461
33	0x9e	0.026123814
34	0x8e	0.0071246764
35	0xaa	0.040373165
36	0x92	0.011874461
37	0x79	-0.017811691
38	0x75	-0.022561476
39	0x89	0.0011874461
40	0x8a	0.0023748921
41	0x6e	-0.030873597
42	0xa5	0.034435935
43	0x93	0.013061907
44	0x70	-0.028498705
45	0xa2	0.030873597
46	0x90	0.0094995685
47	0xa5	0.034435935
48	0xb3	0.05106018
49	0x91	0.010687014
50	0x70	-0.028498705
51	0x81	-0.008312123
52	0x79	-0.017811691
53	0x72	-0.026123814
54	0x79	-0.017811691
55	0x9d	0.024936367
56	0x87	-0.0011874461
57	0x93	0.013061907
58	0x95	0.015436798
59	0x87	-0.0011874461
60	0x82	-0.0071246764
61	0x75	-0.022561476
62	0x94	0.014249353
63	0x74	-0.023748921
64	0x6a	-0.035623383
65	0x97	0.017811691
66	0x76	-0.021374028
67	0x9d	0.024936367
68	0x84	-0.0047497842
69	0xac	0.042748056
70	0x84	-0.0047497842
71	0x88	0.0
72	0x8e	0.0071246764
73	0x99	0.020186583
74	0x83	-0.0059372303
75	0x90	0.0094995685
76	0x80	-0.0094995685
77	0x87	-0.0011874461
78	0x77	-0.020186583
79	0x8c	0.0047497842
80	0x6c	-0.03324849
81	0x90	0.0094995685
82	0x83	-0.0059372303
83	0xa6	0.035623383
84	0x7f	-0.010687014
85	0x84	-0.0047497842
86	0x83	-0.0059372303
87	0x93	0.013061907
88	0x81	-0.008312123
89	0x91	0.010687014
90	0x70	-0.028498705
91	0xab	0.041560613
92	0x91	0.010687014
93	0x97	0.017811691
94	0x86	-0.0023748921
95	0x79	-0.017811691
96	0x82	-0.0071246764
97	0x7c	-0.014249353
98	0x88	0.0
99	0xa0	0.028498705
100	0x83	-0.0059372303
101	0x99	0.020186583
102	0x82	-0.0071246764
103	0x82	-0.0071246764
104	0x84	-0.0047497842
105	0x75	-0.022561476
106	0x7d	-0.013061907
107	0x8b	0.0035623382
108	0xa0	0.028498705
109	0x75	-0.022561476
110	0x99	0.020186583
111	0x8b	0.0035623382
112	0x87	-0.0011874461
113	0x95	0.015436798
114	0x6d	-0.032061044
115	0x5f	-0.04868529
116	0xab	0.041560613
117	0x97	0.017811691
118	0x78	-0.018999137
119	0x89	0.0011874461
120	0x82	-0.0071246764
121	0x82	-0.0071246764
122	0x8a	0.0023748921
123	0xa1	0.029686151
124	0x95	0.015436798
125	0x86	-0.0023748921
126	0x5c	-0.05224763
127	0x98	0.018999137
128	0x79	-0.017811691
129	0x95	0.015436798
130	0x8f	0.008312123
131	0x9c	0.023748921
132	0x8c	0.0047497842
133	0x71	-0.02731126
134	0x70	-0.028498705
135	0x97	0.017811691
136	0x96	0.016624246
137	0x74	-0.023748921
138	0x8e	0.0071246764
139	0x6f	-0.029686151
140	0x89	0.0011874461
141	0x96	0.016624246
142	0x8f	0.008312123
143	0x94	0.014249353
144	0x94	0.014249353
145	0x8e	0.0071246764
146	0x9b	0.022561476
147	0x84	-0.0047497842
148	0xbe	0.06412209
149	0x83	-0.0059372303
150	0x9d	0.024936367
151	0xa2	0.030873597
152	0x87	-0.0011874461
153	0x9f	0.02731126
154	0x9e	0.026123814
155	0x60	-0.047497842
156	0x93	0.013061907
157	0x8c	0.0047497842
158	0x83	-0.0059372303
159	0x8a	0.0023748921
160	0x91	0.010687014
161	0x83	-0.0059372303
162	0x79	-0.017811691
163	0x87	-0.0011874461
164	0x73	-0.024936367
165	0x8f	0.008312123
166	0x80	-0.0094995685
167	0x95	0.015436798
168	0x98	0.018999137
169	0x83	-0.0059372303
170	0x93	0.013061907
171	0x85	-0.0035623382
172	0x6c	-0.03324849
173	0x90	0.0094995685
174	0x92	0.011874461
175	0x85	-0.0035623382
176	0x81	-0.008312123
177	0x74	-0.023748921
178	0x6a	-0.035623383
179	0x72	-0.026123814
180	0x77	-0.020186583
181	0x6a	-0.035623383
182	0x5f	-0.04868529
183	0x73	-0.024936367
184	0x8d	0.0059372303
185	0x5f	-0.04868529
186	0x96	0.016624246
187	0x79	-0.017811691
188	0x79	-0.017811691
189	0x7f	-0.010687014
190	0xaf	0.046310395
191	0x6f	-0.029686151
192	0x83	-0.0059372303
193	0x7d	-0.013061907
194	0xa3	0.032061044
195	0x8a	0.0023748921
196	0x89	0.0011874461
197	0x97	0.017811691
198	0x8d	0.0059372303
199	0x79	-0.017811691
200	0x90	0.0094995685
201	0x9e	0.026123814
202	0x84	-0.0047497842
203	0xa2	0.030873597
204	0x86	-0.0023748921
205	0x84	-0.0047497842
206	0x59	-0.055809963
207	0x9a	0.021374028
208	0x62	-0.04512295
209	0xb1	0.04868529
210	0x8e	0.0071246764
211	0xb0	0.047497842
212	0x8c	0.0047497842
213	0x89	0.0011874461
214	0x95	0.015436798
215	0xe7	0.11280738
216	0x5f	-0.04868529
217	0x71	-0.02731126
218	0x95	0.015436798
219	0x9c	0.023748921
220	0x9d	0.024936367
221	0x84	-0.0047497842
222	0x95	0.015436798
223	0x76	-0.021374028
224	0x72	-0.026123814
225	0x91	0.010687014
226	0x9f	0.02731126
227	0x69	-0.036810827
228	0x77	-0.020186583
229	0x72	-0.026123814
230	0x75	-0.022561476
231	0x81	-0.008312123
232	0x90	0.0094995685
233	0x5c	-0.05224763
234	0x74	-0.023748921
235	0x7c	-0.014249353
236	0x80	-0.0094995685
237	0x78	-0.018999137
238	0x7a	-0.016624246
239	0x8c	0.0047497842
240	0x8b	0.0035623382
241	0x79	-0.017811691
242	0x52	-0.06412209
243	0x6f	-0.029686151
244	0x9f	0.02731126
245	0x94	0.014249353
246	0x9d	0.024936367
247	0x72	-0.026123814
248	0x96	0.016624246
249	0xa5	0.034435935
250	0xac	0.042748056
251	0x8e	0.0071246764
252	0xd2	0.08787101
253	0x71	-0.02731126
254	0x2f	-0.1056827
255	0xa2	0.030873597

mnas_v4_a_035_1/feature_network/cell_14/op_0/project_0/weights_quant/FakeQuantWithMinMaxVars u1 [64, 1, 1, 384] scale=0.006258565 zero_point=111
0	0x6f	0.0
1	0x85	0.13768843
2	0x4b	-0.22530834
3	0xc6	0.54449517
4	0x82	0.118912734
5	0x8e	0.19401552
6	0x3e	-0.30666968
7	0x60	-0.09387848
8	0x73	0.02503426
9	0x66	-0.056327086
10	0x74	0.031292826
11	0x7c	0.081361346
12	0x9a	0.2691183
13	0x8a	0.16898125
14	0x9b	0.27537686
15	0x7c	0.081361346
16	0x92	0.21904978
17	0x40	-0.29415256
18	0x93	0.22530834
19	0x54	-0.16898125
20	0x82	0.118912734
21	0x8c	0.18149838
22	0x4c	-0.21904978
23	0x8c	0.18149838
24	0x6e	-0.006258565
25	0x7b	0.07510278
26	0x65	-0.06258565
27	0x73	0.02503426
28	0x54	-0.16898125
29	0x86	0.14394699
30	0x64	-0.068844214
31	0x8c	0.18149838
32	0x90	0.20653264
33	0xa7	0.35047963
34	0x52	-0.18149838
35	0x56	-0.15646413
36	0x85	0.13768843
37	0x62	-0.081361346
38	0x7c	0.081361346
39	0x63	-0.07510278
40	0x6c	-0.018775694
41	0x65	-0.06258565
42	0x8a	0.16898125
43	0x68	-0.043809954
44	0x5f	-0.10013704
45	0x70	0.006258565
46	0x4e	-0.20653264
47	0x78	0.056327086
48	0x71	0.01251713
49	0x75	0.03755139
50	0x81	0.11265417
51	0x68	-0.043809954
52	0x35	-0.36299676
53	0x7d	0.08761991
54	0x43	-0.27537686
55	0x78	0.056327086
56	0x46	-0.25660115
57	0x56	-0.15646413
58	0x91	0.2127912
59	0x92	0.21904978
60	0x85	0.13768843
61	0x8f	0.20027408
62	0x87	0.15020555
63	0x2f	-0.40054816
64	0x5c	-0.118912734
65	0x7d	0.08761991
66	0x6b	-0.02503426
67	0x57	-0.15020555
68	0x79	0.06258565
69	0x95	0.23782547
70	0xa6	0.3442211
71	0x6d	-0.01251713
72	0x71	0.01251713
73	0x98	0.25660115
74	0x52	-0.18149838
75	0x72	0.018775694
76	0x7f	0.10013704
77	0x75	0.03755139
78	0x7e	0.09387848
79	0x6e	-0.006258565
80	0x94	0.2315669
81	0x76	0.043809954
82	0x6d	-0.01251713
83	0x79	0.06258565
84	0x8b	0.17523982
85	0x43	-0.27537686
86	0x87	0.15020555
87	0x66	-0.056327086
88	0x7d	0.08761991
89	0x8a	0.16898125
90	0xa0	0.30666968
91	0x5f	-0.10013704
92	0x7b	0.07510278
93	0x58	-0.14394699
94	0x51	-0.18775696
95	0x8a	0.16898125
96	0x5d	-0.11265417
97	0x79	0.06258565
98	0x7c	0.081361346
99	0x72	0.018775694
100	0x82	0.118912734
101	0x5f	-0.10013704
102	0x81	0.11265417
103	0x7c	0.081361346
104	0x80	0.1063956
105	0x76	0.043809954
106	0xae	0.39428958
107	0x70	0.006258565
108	0x5f	-0.10013704
109	0x7e	0.09387848
110	0x45	-0.26285973
111	0x80	0.1063956
112	0x94	0.2315669
113	0x89	0.16272269
114	0x5a	-0.13142987
115	0x69	-0.03755139
116	0x6c	-0.018775694
117	0x97	0.2503426
118	0x72	0.018775694
119	0x61	-0.08761991
120	0x6d	-0.01251713
121	0x7b	0.07510278
122	0x9d	0.28789398
123	0x9f	0.3004111
124	0x78	0.056327086
125	0x70	0.006258565
126	0x6c	-0.018775694
127	0xbe	0.49442664
128	0x7b	0.07510278
129	0x68	-0.043809954
130	0xa2	0.3191868
131	0x6e	-0.006258565
132	0x82	0.118912734
133	0x7b	0.07510278
134	0x6d	-0.01251713
135	0x8e	0.19401552
136	0x79	0.06258565
137	0x82	0.118912734
138	0x67	-0.05006852
139	0x9a	0.2691183
140	0x5d	-0.11265417
141	0x6c	-0.018775694
142	0x7e	0.09387848
143	0x6e	-0.006258565
144	0x56	-0.15646413
145	0x72	0.018775694
146	0x31	-0.38803104
147	0x75	0.03755139
148	0x74	0.031292826
149	0x8e	0.19401552
150	0x79	0.06258565
151	0x43	-0.27537686
152	0x99	0.26285973
153	0x66	-0.056327086
154	0x65	-0.06258565
155	0x5c	-0.118912734
156	0x88	0.15646413
157	0x6c	-0.018775694
158	0x6c	-0.018775694
159	0x64	-0.068844214
160	0x5e	-0.1063956
161	0x4e	-0.20653264
162	0x6c	-0.018775694
163	0x67	-0.05006852
164	0x98	0.25660115
165	0x81	0.11265417
166	0x6e	-0.006258565
167	0x72	0.018775694
168	0x7e	0.09387848
169	0x4b	-0.22530834
170	0x72	0.018775694
171	0x54	-0.16898125
172	0x78	0.056327086
173	0x91	0.2127912
174	0x50	-0.19401552
175	0x67	-0.05006852
176	0x7d	0.08761991
177	0x43	-0.27537686
178	0x60	-0.09387848
179	0x7a	0.068844214
180	0x78	0.056327086
181	0x78	0.056327086
182	0x7d	0.08761991
183	0xa3	0.32544538
184	0x4c	-0.21904978
185	0x6b	-0.02503426
186	0x6e	-0.006258565
187	0x72	0.018775694
188	0x68	-0.043809954
189	0x40	-0.29415256
190	0x76	0.043809954
191	0x85	0.13768843
192	0x8c	0.18149838
193	0x4b	-0.22530834
194	0x85	0.13768843
195	0x80	0.1063956
196	0x72	0.018775694
197	0x6d	-0.01251713
198	0x3e	-0.30666968
199	0x5d	-0.11265417
200	0x83	0.1251713
201	0x99	0.26285973
202	0x86	0.14394699
203	0x3f	-0.3004111
204	0x4d	-0.2127912
205	0x7d	0.08761991
206	0xd8	0.6571493
207	0x6f	0.0
208	0x7e	0.09387848
209	0x7a	0.068844214
210	0x80	0.1063956
211	0x59	-0.13768843
212	0x71	0.01251713
213	0x87	0.15020555
214	0x41	-0.28789398
215	0x75	0.03755139
216	0x91	0.2127912
217	0x8e	0.19401552
218	0x56	-0.15646413
219	0x87	0.15020555
220	0x54	-0.16898125
221	0x6d	-0.01251713
222	0x78	0.056327086
223	0x7b	0.07510278
224	0x68	-0.043809954
225	0x73	0.02503426
226	0x8d	0.18775696
227	0x5c	-0.118912734
228	0x80	0.1063956
229	0x5b	-0.1251713
230	0x7d	0.08761991
231	0x7e	0.09387848
232	0x4c	-0.21904978
233	0x84	0.13142987
234	0x84	0.13142987
235	0x5f	-0.10013704
236	0x75	0.03755139
237	0x8a	0.16898125
238	0x56	-0.15646413
239	0x9c	0.28163543
240	0x83	0.1251713
241	0xa0	0.30666968
242	0x95	0.23782547
243	0x6b	-0.02503426
244	0x58	-0.14394699
245	0x60	-0.09387848
246	0x80	0.1063956
247	0x96	0.24408403
248	0x62	-0.081361346
249	0x68	-0.043809954
250	0x71	0.01251713
251	0x5e	-0.1063956
252	0x7c	0.081361346
253	0x6e	-0.006258565
254	0x5f	-0.10013704
255	0x6c	-0.018775694

mnas_v4_a_035_1/feature_network/cell_15/op_0/depthwise_0/weights_quant/FakeQuantWithMinMaxVars u1 [1, 5, 5, 384] scale=0.9040619 zero_point=97
0	0x62	0.9040619
1	0x61	0.0
2	0x61	0.0
3	0x61	0.0
4	0x61	0.0
5	0x61	0.0
6	0x61	0.0
7	0x61	0.0
8	0x61	0.0
9	0x61	0.0
10	0x61	0.0
11	0x61	0.0
12	0x62	0.9040619
13	0x61	0.0
14	0x61	0.0
15	0x61	0.0
16	0x61	0.0
17	0x61	0.0
18	0x61	0.0
19	0x61	0.0
20	0x61	0.0
21	0x62	0.9040619
22	0x61	0.0
23	0x61	0.0
24	0x61	0.0
25	0x61	0.0
26	0x60	-0.9040619
27	0x60	-0.9040619
28	0x61	0.0
29	0x61	0.0
30	0x61	0.0
31	0x62	0.9040619
32	0x61	0.0
33	0x61	0.0
34	0x60	-0.9040619
35	0x61	0.0
36	0x61	0.0
37	0x61	0.0
38	0x61	0.0
39	0x61	0.0
40	0x62	0.9040619
41	0x61	0.0
42	0x61	0.0
43	0x62	0.9040619
44	0x60	-0.9040619
45	0x61	0.0
46	0x61	0.0
47	0x62	0.9040619
48	0x61	0.0
49	0x61	0.0
50	0x61	0.0
51	0x61	0.0
52	0x53	-12.656867
53	0x60	-0.9040619
54	0x61	0.0
55	0x61	0.0
56	0x62	0.9040619
57	0x61	0.0
58	0x61	0.0
59	0x61	0.0
60	0x61	0.0
61	0x61	0.0
62	0x63	1.8081238
63	0x61	0.0
64	0x61	0.0
65	0x61	0.0
66	0x61	0.0
67	0x61	0.0
68	0x61	0.0
69	0x61	0.0
70	0x61	0.0
71	0x61	0.0
72	0x61	0.0
73	0x61	0.0
74	0x61	0.0
75	0x61	0.0
76	0x61	0.0
77	0x61	0.0
78	0x62	0.9040619
79	0x60	-0.9040619
80	0x61	0.0
81	0x61	0.0
82	0x61	0.0
83	0x60	-0.9040619
84	0x61	0.0
85	0x62	0.9040619
86	0x61	0.0
87	0x61	0.0
88	0x61	0.0
89	0x61	0.0
90	0x61	0.0
91	0x61	0.0
92	0x61	0.0
93	0x61	0.0
94	0x61	0.0
95	0x61	0.0
96	0x61	0.0
97	0x61	0.0
98	0x61	0.0
99	0x61	0.0
100	0x60	-0.9040619
101	0x61	0.0
102	0x61	0.0
103	0x61	0.0
104	0x61	0.0
105	0x61	0.0
106	0x61	0.0
107	0x61	0.0
108	0x63	1.8081238
109	0x61	0.0
110	0x62	0.9040619
111	0x61	0.0
112	0x61	0.0
113	0x61	0.0
114	0x61	0.0
115	0x61	0.0
116	0x61	0.0
117	0x61	0.0
118	0x61	0.0
119	0x61	0.0
120	0x61	0.0
121	0x61	0.0
122	0x60	-0.9040619
123	0x62	0.9040619
124	0x61	0.0
125	0x61	0.0
126	0x61	0.0
127	0x61	0.0
128	0x61	0.0
129	0x61	0.0
130	0x61	0.0
131	0x61	0.0
132	0x61	0.0
133	0x62	0.9040619
134	0x61	0.0
135	0x62	0.9040619
136	0x61	0.0
137	0x61	0.0
138	0x61	0.0
139	0x61	0.0
140	0x61	0.0
141	0x61	0.0
142	0x61	0.0
143	0x61	0.0
144	0x61	0.0
145	0x61	0.0
146	0x60	-0.9040619
147	0x61	0.0
148	0x60	-0.9040619
149	0x61	0.0
150	0x60	-0.9040619
151	0x61	0.0
152	0x61	0.0
153	0x62	0.9040619
154	0x61	0.0
155	0x61	0.0
156	0x61	0.0
157	0x61	0.0
158	0x62	0.9040619
159	0x61	0.0
160	0x62	0.9040619
161	0x62	0.9040619
162	0x61	0.0
163	0x61	0.0
164	0x60	-0.9040619
165	0x61	0.0
166	0x61	0.0
167	0x61	0.0
168	0x61	0.0
169	0x60	-0.9040619
170	0x61	0.0
171	0x62	0.9040619
172	0x61	0.0
173	0x62	0.9040619
174	0x62	0.9040619
175	0x61	0.0
176	0x61	0.0
177	0x61	0.0
178	0x61	0.0
179	0x61	0.0
180	0x62	0.9040619
181	0x61	0.0
182	0x61	0.0
183	0x61	0.0
184	0x61	0.0
185	0x61	0.0
186	0x61	0.0
187	0x61	0.0
188	0x61	0.0
189	0x61	0.0
190	0x61	0.0
191	0x61	0.0
192	0x61	0.0
193	0x61	0.0
194	0x61	0.0
195	0x61	0.0
196	0x61	0.0
197	0x61	0.0
198	0x61	0.0
199	0x62	0.9040619
200	0x61	0.0
201	0x61	0.0
202	0x61	0.0
203	0x61	0.0
204	0x62	0.9040619
205	0x61	0.0
206	0x61	0.0
207	0x61	0.0
208	0x61	0.0
209	0x61	0.0
210	0x61	0.0
211	0x61	0.0
212	0x61	0.0
213	0x61	0.0
214	0x61	0.0
215	0x60	-0.9040619
216	0x61	0.0
217	0x62	0.9040619
218	0x61	0.0
219	0x61	0.0
220	0x61	0.0
221	0x61	0.0
222	0x61	0.0
223	0x61	0.0
224	0x61	0.0
225	0x61	0.0
226	0x61	0.0
227	0x61	0.0
228	0x61	0.0
229	0x61	0.0
230	0x61	0.0
231	0x61	0.0
232	0x61	0.0
233	0x61	0.0
234	0x61	0.0
235	0x61	0.0
236	0x61	0.0
237	0x61	0.0
238	0x61	0.0
239	0x61	0.0
240	0x62	0.9040619
241	0x61	0.0
242	0x61	0.0
243	0x61	0.0
244	0x61	0.0
245	0x61	0.0
246	0x61	0.0
247	0x61	0.0
248	0x61	0.0
249	0x51	-14.464991
250	0x61	0.0
251	0x62	0.9040619
252	0x61	0.0
253	0x62	0.9040619
254	0x61	0.0
255	0x61	0.0
